…
ut_type":"stream","name":"stderr","text":["Some weights of RobertaForSequenceClassification were not initialized from the model checkpoint at roberta-base and are newly initialized: ['classifier.dense.bias', 'classifier.dense.weight', 'classifier.out_proj.bias', 'classifier.out_proj.weight']\n","You should probably TRAIN this model on a down-stream task to be able to use it for predictions and inference.\n"]},{"output_type":"execute_result","data":{"text/plain":["RobertaForSequenceClassification(\n","  (roberta): RobertaModel(\n","    (embeddings): RobertaEmbeddings(\n","      (word_embeddings): Embedding(50265, 768, padding_idx=1)\n","      (position_embeddings): Embedding(514, 768, padding_idx=1)\n","      (token_type_embeddings): Embedding(1, 768)\n","      (LayerNorm): LayerNorm((768,), eps=1e-05, elementwise_affine=True)\n","      (dropout): Dropout(p=0.1, inplace=False)\n","    )\n","    (encoder): RobertaEncoder(\n","      (layer): ModuleList(\n","        (0-11): 12 x RobertaLayer(\n","          (attention): RobertaAttention(\n","            (self): RobertaSelfAttention(\n","              (query): Linear(in_features=768, out_features=768, bias=True)\n","              (key): Linear(in_features=768, out_features=768, bias=True)\n","              (value): Linear(in_features=768, out_features=768, bias=True)\n","              (dropout): Dropout(p=0.1, inplace=False)\n","            )\n","            (output): RobertaSelfOutput(\n","              (dense): Linear(in_features=768, out_features=768, bias=True)\n","              (LayerNorm): LayerNorm((768,), eps=1e-05, elementwise_affine=True)\n","              (dropout): Dropout(p=0.1, inplace=False)\n","            )\n","          )\n","          (intermediate): RobertaIntermediate(\n","            (dense): Linear(in_features=768, out_features=3072, bias=True)\n","            (intermediate_act_fn): GELUActivation()\n","          )\n","          (output): RobertaOutput(\n","            (dense): Linear(in_features=3072, out_features=768, bias=True)\n","            (LayerNorm): LayerNorm((768,), eps=1e-05, elementwise_affine=True)\n","            (dropout): Dropout(p=0.1, inplace=False)\n","          )\n","        )\n","      )\n","    )\n","  )\n","  (classifier): RobertaClassificationHead(\n","    (dense): Linear(in_features=768, out_features=768, bias=True)\n","    (dropout): Dropout(p=0.1, inplace=False)\n","    (out_proj): Linear(in_features=768, out_features=2, bias=True)\n","  )\n",")"]},"metadata":{},"execution_count":13}],"source":["model = RobertaForSequenceClassification.from_pretrained(model_name)\n","model.to(device)"]},{"cell_type":"code","execution_count":null,"metadata":{"id":"1juVzmxJ7J0N"},"outputs":[],"source":["# Creating the optimizer\n","optimizer = torch.optim.Adam(params=model.parameters(), lr=LEARNING_R
…
